checkpoints/GMM_4gauss_vgs_plot.pth (torch, 804645 bytes, 28 tensors)

s2 f4 [10]
00000000: cdcc cc3d e6dc ae3d 434a 933d bf29 743d
00000010: 7a79 463d b883 1d3d ef90 f23c 728f b33c
00000020: f205 7c3c 0bd7 233c
0.1 0.08538227 0.07191899 0.059610125 0.048455693 0.038455695 0.029610125 0.021918986
0.015382277 0.010000001

alpha f4 [10]
00000000: 81ec 863f 60d7 853f f2dd 843f 9bfe 833f
00000010: f737 833f d688 823f 2ef0 813f 236d 813f
00000020: f8fe 803f 14a5 803f
1.0540925 1.0456352 1.0380232 1.0312074 1.0251454 1.0198009 1.0151422 1.0111431
1.007781 1.0050378

value.net1.net.0.weight f4 [128, 2]
00000000: 68e7 09bf da9d 26bf b601 2bbf 78fc 453f
00000010: 100e 043e 4478 a8bd 8ef6 42be 34de 103f
00000020: b434 fd3e 2450 22bf 07f3 1a3f 21b3 0f3f
00000030: f802 873c 0202 9abe becf 943e 61b7 ab3c
00000040: d1b2 6d3e 4e49 14bf 3ac7 1b3f cbb3 3c3e
00000050: 1bc4 193f d970 c5be 73a5 07bf ab03 eabe
00000060: 7c3a 00bf 8d68 c6be ac9b 63be ebc6 ce3d
00000070: e187 093f 6cad d13e 174e c03e 6012 3f3f
00000080: 6d9f 343f 75d5 4abc f279 09bf 8d7a b53d
00000090: 8de7 a1be 072d b2be 78ab e93e f0f3 d53e
000000a0: 2eba c23e 985b a8bd be56 233f 61ec d93d
000000b0: 82dd 3ebe 66a2 e5bd e939 293f 51ea 643e
000000c0: d5fa e03d 0aae cc3e b96b 08be a986 45bf
000000d0: 64d2 02bf 4b61 513e 69ea c0be 5ae3 003f
000000e0: 59a5 c9be 7f67 8b3e 9e92 b93e caf3 28bf
000000f0: 08f4 20bf ae22 1abf 84ea 1f3f 224a 923c
00000100: b2d4 0abf 368f 4c3f e764 01bf 8842 d13e
00000110: 685c 26be e50a 96be bd97 b8be 749e 13bf
00000120: c975 47bf 3463 2d3f df7b 40bf 565b 203c
00000130: 9f3f 0a3f 7319 7a3e 5491 ebbe a0b9 193f
00000140: 6c27 22be 7587 da3d c110 cb3e 5e4e ac3e
00000150: 0542 123f 4e72 09bf 768d 2cbe 7748 263f
00000160: b4fb 3f3f 26a5 e83d 8c61 abbe 4333 fd3e
00000170: e3ee 5ebe cc84 0ebe feb6 293f 1a35 3f3f
00000180: 2edd d2be 9406 b1be a8e7 c73d b242 3c3f
00000190: dd23 963e 74d3 0c3f ddeb 293f 49e9 a43e
000001a0: 793f 39bf acb3 ddbe c516 1e3f b441 4fbe
000001b0: 7495 18bf b6f6 ca3d b6d8 113f 8403 3abf
000001c0: 2518 083f c4ac c23c d735 06be a311 9bbe
000001d0: 9cce 023f 4659 2abf 271d ae3e 6e60 3bbf
000001e0: 02b5 343f fec8 72be eb2c 00bf 9113 183f
000001f0: c778 163e 9676 31bf 2a76 fbbe 0b1e 063f
00000200: d8ec 193f 9d56 16bf 9f0e f1be d75f c83e
00000210: 1209 2cbf d27b 48bf 85de 303f b6fa fdbe
00000220: a90a d63e 680f eebe cbc3 b43e 682d 3fbf
00000230: ee2e be3b bdf8 503f b751 0cbf 378f d13e
00000240: f529 fc3e 1792 0ebf c5f0 d4bd 9f07 d93e
00000250: 4147 143e a0f2 3c3f 55f9 8bbe 13da 053e
00000260: 2cc8 23be 209c febe 64d7 8cbe a956 8a3e
00000270: 197f fdbb 1c87 373f cd96 5cbe 55e7 873e
00000280: 8476 c73e 1c99 bc3c 9c90 e6be 8753 673e
00000290: f989 6d3d b30c 103f b631 363f 645d 3a3f
000002a0: 493e 8fbe e9a9 8c3e 56f7 e0be ef36 2bbf
000002b0: 20f3 e03e 65f1 80be 7961 763e 5f9a 2b3e
000002c0: 90fc ba3e b63b 863e 5c9c 84be e747 68be
000002d0: 245c 273f 53e5 433f bdc6 febe 51da 023f
000002e0: 99d5 eabe f4f6 4abf e395 febd 31ab b5be
000002f0: ce8c 21bf d976 293d ea85 d0bd 7744 373f
00000300: 451c 33bf dacc 8f3e 3b52 0abf c6c1 20bf
00000310: c700 063f aa20 ea3d 5828 173f faab 03bf
00000320: 6ca6 3b3f 12b0 3a3f 422e d7bd 0d10 0ebf
00000330: 55fe 1ebf 9bb5 89bd d422 dc3e a8fe 09bf
00000340: 944f 73bd 16bc dbbd 9f8a aabe cee1 efbe
00000350: c945 1a3e 621a 143d eed5 0e3f 73cb 1c3f
00000360: 5790 e83e 4883 793e e454 383f 3783 183f
00000370: 4ca4 2e3f cc4d 153e 5ff4 09bf 3f59 2ebf
00000380: 510c 9fbe 79af cbbd bc1a a2be 2836 cf3e
00000390: fa65 c23e ab88 babe 3156 d73e 6892 7fbe
000003a0: 7090 45bf 0ee3 33bf 5877 333f 0bd2 833e
000003b0: 3559 463e fbc0 ee3e 7a4c 0d3f c6a5 12bf
000003c0: 1c38 f33e 5365 293f ead5 d4bd 559b 033f
000003d0: c6ea c73e bbd2 d43e e8e4 3cbf 2f1d f6be
000003e0: 1554 96be 0951 733e 61ab 1bbf 0e28 493f
000003f0: 0372 28bf ce16 273f 8f91 8ebd 11c3 48bf
-0.5386872 -0.6508461 -0.66799486 0.7733836 0.1289599 -0.08226064 -0.19039366 0.56589055
0.49454272 -0.63403535 0.6052708 0.56132704 0.016480908 -0.30079657 0.29064745 0.020961465
0.23212744 -0.57924354 0.6085087 0.1842796 0.6006486 -0.38562658 -0.5298683 -0.45705923
-0.5008924 -0.3875164 -0.22227353 0.10096534 0.5372296 0.40952623 0.37559578 0.74637413
0.70555764 -0.012379994 -0.537017 0.08861265 -0.31621972 -0.34799978 0.45638633 0.41787672
0.3803267 -0.08220595 0.63804233 0.10640789 -0.18639186 -0.11212616 0.6610399 0.2235501
0.109853424 0.3997653 -0.13322343 -0.771586 -0.5110228 0.2044727 -0.3767884 0.5034691
-0.39383963 0.272274 0.36244673 -0.6599699 -0.6287236 -0.60209167 0.6246722 0.017857615
-0.542308 0.7990602 -0.5054459 0.40871072 -0.16246188 -0.29305187 -0.36053267 -0.57663655
-0.779141 0.67729497 -0.7518901 0.009787401 0.5400333 0.2442377 -0.46009314 0.60048866
-0.15835351 0.10670368 0.3966122 0.3365354 0.5713199 -0.5369004 -0.16850838 0.6495432
0.74993443 0.113596246 -0.3347286 0.49453172 -0.21770816 -0.13917845 0.6629485 0.746904
-0.41184372 -0.3457533 0.09760982 0.7353927 0.29324237 0.5501015 0.66375524 0.32209232
-0.72362477 -0.4330114 0.61753494 -0.20239908 -0.5960305 0.099103376 0.569713 -0.72661614
0.5316184 0.023764022 -0.13106476 -0.30286893 0.5109651 -0.6654247 0.34006616 -0.73194015
0.70588696 -0.23709485 -0.5006854 0.59404856 0.1469451 -0.6932157 -0.4911359 0.5238959
0.6012702 -0.5872591 -0.47081468 0.3913562 -0.6720134 -0.78313935 0.6908954 -0.4960534
0.41805008 -0.4649613 0.35305628 -0.7467866 0.0058039343 0.81629544 -0.54812187 0.40929577
0.4925076 -0.55691665 -0.10397486 0.42388627 0.14480306 0.73807716 -0.27338663 0.1307147
-0.15994328 -0.4972849 -0.2750808 0.2701924 -0.0077360985 0.71690536 -0.21541901 0.2654368
0.38957608 0.023022227 -0.45032203 0.22590457 0.05799291 0.5626938 0.711696 0.7279875
-0.27977207 0.2747338 -0.43938702 -0.66880697 0.4393549 -0.2518417 0.2406062 0.16758107
0.36520815 0.2621743 -0.25900543 -0.22683679 0.6537497 0.76521796 -0.49761 0.51114374
-0.45866087 -0.7928307 -0.124309324 -0.3548217 -0.63105476 0.041373108 -0.10181792 0.71588844
-0.6996501 0.28085977 -0.54031724 -0.62795675 0.52344936 0.114320114 0.59045935 -0.5143429
0.73300815 0.7292491 -0.1050687 -0.5549324 -0.6210683 -0.067240916 0.42995322 -0.539042
-0.059402063 -0.10729234 -0.33308885 -0.46851963 0.15065683 0.036157973 0.5579518 0.6124794
0.45422623 0.24366486 0.7200453 0.5957522 0.6821945 0.14580458 -0.53888506 -0.6810493
-0.31064084 -0.09945578 -0.31661022 0.40471005 0.37968427 -0.36432394 0.42057946 -0.24958193
-0.7717352 -0.7026833 0.7010398 0.25746188 0.19369967 0.46631607 0.5519482 -0.572842
0.47503746 0.66170233 -0.10392363 0.5140889 0.39046305 0.41567025 -0.73786783 -0.4806914
-0.29361024 0.23761381 -0.6080838 0.78576744 -0.6579897 0.6526917 -0.06961357 -0.7842265

value.net1.net.0.bias f4 [128]
00000000: b6ec 16bf 378d b9be b9b7 f1be 1e32 113f
00000010: eef2 5dbe 1547 32bf 9b8f fd3e f3df 203f
00000020: cec7 fc3e 880a 063e 8239 bd3d c185 0b3d
00000030: 54fc 2ebe 16b3 19bf 4071 dbbb e4c3 3e3e
00000040: faa6 1dbe efcc a83e a555 663e 79f5 0abf
00000050: c14b 663e 77c3 b13e ed09 b63e d1bd e5be
00000060: fb23 abbe 2ad7 2dbe 6e96 1b3d 0536 8fbd
00000070: 1750 b0bb f6ed 68be 41fb 153f ecbf ef3e
00000080: 51a5 083f 60b6 72be 686e e73d c4b0 073f
00000090: de17 963d f0a6 2ebf b467 8e3d b79b bfbe
000000a0: 1474 8bbe 2e82 d4be b7cb 23bf fbcd 263f
000000b0: 7f94 1ebf c053 c83d 7675 d4bd 3d92 143e
000000c0: 9b3c 533e 51ec 8a3e 9708 1b3f 1d66 d8be
000000d0: 4c5d e93e 5568 e13d a705 003f d7c4 0ebf
000000e0: 8524 273f 5633 f5be ff9c 253e 51a2 c9be
000000f0: 8820 dc3e b9e5 a53d fd1c d93d ace8 063f
00000100: 0a6e 213f 2a4a a5be 513a 2bbc 8574 11bf
00000110: cd1e d03e df93 83bd f4a1 103f db73 35bf
00000120: 2a7f 2abe 331b 0abf e4ab 42bf e045 1c3e
00000130: 5de2 37be 208b 333e a0c0 363e 48b3 f0bd
00000140: 695c 66bb b364 5cbe 78a9 50be 4b35 5f3e
00000150: da30 1d3f cb50 f73e 225e e23e ddec 9e3e
00000160: a0c5 803e 91d0 3cbf 3bb6 013f 212c ebbd
00000170: 8b80 0fbe 5526 37bf 76cc 5a3d ef81 0dbf
00000180: 95df 223f 4a8a debe 3b24 e3be 3f95 d3be
00000190: 7b5a 02be 1e89 88be cc0b a43d d1ab 32bf
000001a0: 0953 5bbe 1eb8 b73d e208 7ebd f813 3dbe
000001b0: f6a9 bf3d 381d c5be 3393 b13e 462d 253e
000001c0: 0be4 5fbe 357c ae3e b7bc a8be 2fa5 6bbe
000001d0: a346 6dbe 17ff d1be 3a14 18bf 97af 00bc
000001e0: 1d82 253f 2de6 af3d 14e7 4dbe f260 80be
000001f0: 44e7 783d 66b8 603d b293 c93e c606 183f
-0.5895494 -0.3624055 -0.47210482 0.567171 -0.21674702 -0.6963971 0.49523625 0.6284172
0.4937119 0.13089955 0.09239484 0.034063105 -0.17088443 -0.6003889 -0.00669685 0.18629414
-0.15395728 0.32968852 0.22493608 -0.5428081 0.22489835 0.3471944 0.35554448 -0.4487138
-0.33425888 -0.1697661 0.037985258 -0.06992725 -0.005380641 -0.22747025 0.5858651 0.46826112
0.5337725 -0.23702383 0.11300355 0.530041 0.07328771 -0.68223476 0.069533736 -0.37423488
-0.27236998 -0.4150557 -0.6398272 0.6515805 -0.6194534 0.09781599 -0.103739664 0.1450891
0.20628588 0.2713342 0.6055998 -0.42265406 0.45578992 0.11006228 0.50008625 -0.55769104
0.652901 -0.4789073 0.1617317 -0.3938165 0.4299357 0.08100457 0.10601232 0.5269878
0.6305853 -0.32283145 -0.010450915 -0.5681842 0.406485 -0.064246885 0.5649712 -0.70879906
-0.16650072 -0.5394775 -0.76043534 0.1526103 -0.17957444 0.1753354 0.17846918 -0.11752945
-0.0035150296 -0.21522789 -0.20377147 0.21797673 0.61402667 0.48303828 0.44212443 0.31040087
0.25150776 -0.7375575 0.50668687 -0.11483026 -0.14013879 -0.71542865 0.053417645 -0.5527639
0.6362241 -0.4346488 -0.4436358 -0.41324803 -0.12729828 -0.26667112 0.080100626 -0.6979342
-0.21418394 0.089706644 -0.06202019 -0.18464649 0.09358589 -0.38498855 0.34682617 0.16130552
-0.21864335 0.34079137 -0.32956478 -0.23012231 -0.23171477 -0.4101493 -0.59405863 -0.007854364
0.6465166 0.085888244 -0.2010768 -0.25073963 0.060767427 0.054863356 0.39370495 0.59385335

value.net2.net.0.weight f4 [128, 128]
00000000: 642f 5f3e 5dcd d03d 9e52 febd 2c73 08be
00000010: a434 f2bd 3777 17be 7d51 e4bd be22 d83d
00000020: e576 efbc 4b37 023c 1d8e 71bd 1fa6 2bbd
00000030: 18c6 e2bc deee 803d 6bcb 20bc b9dc 1e3d
00000040: cd9b 77bd 170b 963d 5d1b 9f3b 9c75 3c3c
00000050: e1ce 563d c320 8fbd 061a afbd a9cf 96bc
00000060: ffb0 e73a a341 523d df84 d63c 327e 9bbd
00000070: 3ab9 88bd 8c0a 883b 4ab9 a73d 1a07 5c3d
00000080: db97 4fbc 757e 54bd 0a16 3bbc 63b2 583c
00000090: de30 80bd 267d e0bc b57b 9bbc 3fa1 81bd
000000a0: 6649 b23c 709d 34bd 4a13 493d e39c af3d
000000b0: 61a5 1cbc cad0 653d a6ba 943c bc2c 78bd
000000c0: c88a 58bd 0b5e 4f3d 8097 813d 5134 243c
000000d0: e1b4 91bc 6782 93bd 990b 983d 1dba 46bc
000000e0: ec3f aa3c 1372 34bc 2c11 633d d88f b5bd
000000f0: 2c37 3f3d 4059 6abb 4bac 00bd 2c39 c7bc
00000100: a139 783d 6f61 993e c13d d83d 9837 d23c
00000110: e52f 2dbd 11f4 dbbb 469a 85bc 35e2 8bbd
00000120: c950 0f3d b0ca a73c b4ed bfbd 287b 94bd
00000130: 2d26 443e 5f0c bbbd b024 923d a5c7 45bd
00000140: 081b 7bbd c5f1 79ba 67fd 05bd 80d1 233d
00000150: e58c ecbc 5bdd 45bd 1f34 09bd 83d8 87ba
00000160: 99d6 84bd ff0f 95bd 69b1 3c3c 7fe8 b03c
00000170: 6f13 fd3c 6429 4b3b 51dc 2a3d 6b88 b3bd
00000180: c2a5 cfbb 3826 1c3d 3136 863c 4729 bb3b
00000190: 37a4 81bd f956 353b a807 b5bd 9fd6 7abd
000001a0: 8638 c93c 3f5f babd 0390 56bc 1929 013c
000001b0: 4d62 80bd f939 7fbd 4ed8 8cbd 4a4c 833d
000001c0: fa54 7a3d 005d a13c 3fd9 56bd 603e f23c
000001d0: 2388 74bd f2d6 743c 195b a03b 0b11 19bd
000001e0: 5849 883c ea0a aebc f7b1 2c3d 638e 743d
000001f0: 9b7d 37bd e592 f03b c8a8 a33a f4d3 b0bd
00000200: 158e 393e 916d 3fbc e4b4 9c3a bced cc3d
00000210: 2f12 d2bc 86d9 953d a8e9 903c 6470 0c3e
00000220: 725b b83d f8b7 353d 46be a93d e105 693d
00000230: 420e 68bc 2124 ea3c d90b 563d aa3a adbd
00000240: 5124 043d 43d1 4dba b587 8e3c 7a37 a0bc
00000250: 62a2 c83c 9b64 22bd 1b74 2c3d c3e9 883d
00000260: 0012 513d b5c7 4b3d 3179 d43c d907 3b3b
00000270: 0577 85bd 80b1 c23b c3c5 4cbc a40f 9dbc
00000280: 56b4 8d3d b7ab 7f3d 8149 b5bd 8d42 813d
00000290: a305 b1bc e13e 97bc 7cc1 cabd 585c 113c
000002a0: 693d c8bc cb93 5b3d 486e 4bbd 275a a0bd
000002b0: 316f 5a3d 1ccf bebd fea1 27bd 1a8c 1d3d
000002c0: 9792 6fbc fc1c 10bd a669 793d 245f 2c3d
000002d0: f88c 9ebd 53bf 653d 3165 083d 544c 7d3c
000002e0: 1c2d 90bd bdde 13bd 2b3c 923d 107f 82bd
000002f0: f903 bcbc 8c11 27bb 4df6 78bc 7171 bdbc
00000300: 758c 393c 5b0b 943b 1bdf 73bd 5767 b1bd
00000310: 9719 b9bd 8cc8 123d d17f a43d 9b69 403d
00000320: f85e 3a3d f1a6 69bc e7d0 8b3c cab6 ad3c
00000330: 3f6d 623e 868b e0bc af75 343c e17f 973d
00000340: f7bb 87bc 1553 843c 2493 f8bc ebe3 22bd
00000350: 9ff9 6e3d 7a81 a9bc c3d6 813a b23b 6dbd
00000360: 90ae a73c 6367 9f3d c4c3 ae3d a39d 92bd
00000370: e96a 263d 0b71 5fbd a117 b33d 1c9c adbd
00000380: bfc7 64bc 946b 89bd f8c1 67bb 8491 a5bd
00000390: 549c 18bd bbfa 5dbd c9fc b23d 5f83 23bd
000003a0: 791e 5a3d f2b9 3f3d 8b40 b13b af19 cc3c
000003b0: b857 4a3d ec07 c93c 4d68 a3bd 8877 c83c
000003c0: d989 c0bc c9c6 933d ce8e 93bd ae96 313d
000003d0: 2e7e 843d faae b0bd 12e7 62bb ebd2 703b
000003e0: c179 833d c625 edbc 6679 20bd f403 f3bc
000003f0: 028c a1b9 4494 533d e07c 913d 0d7f b63c
0.21795422 0.1019542 -0.12418102 -0.13325185 -0.11826447 -0.1479157 -0.11148355 0.105535015
-0.029231498 0.007947753 -0.05897342 -0.041906472 -0.02768235 0.0629556 -0.009814124 0.038784716
-0.060451318 0.07326334 0.004855557 0.01150265 0.05244339 -0.06988671 -0.085498855 -0.018409567
0.001767665 0.051332127 0.026186405 -0.07592429 -0.06675954 0.004151648 0.08189638 0.05371771
-0.0126704825 -0.05187841 -0.011418829 0.013226124 -0.06259321 -0.027403425 -0.018979887 -0.063295834
0.021763515 -0.044095457 0.04909066 0.08574846 -0.009560914 0.05610732 0.018155407 -0.060589537
-0.052866727 0.050626796 0.063277245 0.010022239 -0.017786445 -0.07202607 0.07424087 -0.012129334
0.020782433 -0.011013526 0.0554363 -0.08865327 0.046683475 -0.0035758764 -0.03141431 -0.024319254
0.060601834 0.29957148 0.105586536 0.025661275 -0.042282004 -0.0067124446 -0.016308915 -0.06830255
0.034989152 0.020482391 -0.0937151 -0.07250053 0.19155188 -0.09133219 0.07135904 -0.0482861
-0.061305076 -0.00095346227 -0.032712366 0.039994717 -0.028875777 -0.048306804 -0.033496972 -0.0010364208
-0.06486244 -0.07278442 0.011516907 0.021595238 0.030893056 0.0031000013 0.041714016 -0.08766254
-0.0063368985 0.038122386 0.016383262 0.0057117078 -0.063301496 0.0027670248 -0.08839351 -0.061239835
0.024563085 -0.09100198 -0.0130958585 0.007883334 -0.062687494 -0.062311146 -0.06877194 0.06411035
0.061116196 0.019697666 -0.052453276 0.029570758 -0.059700143 0.014943825 0.004893672 -0.03736977
0.016636536 -0.021245439 0.042161908 0.059706103 -0.04479752 0.00734173 0.0012486214 -0.08634177
0.18120606 -0.0116838375 0.0011955765 0.10006282 -0.025643436 0.0731688 0.017689541 0.13714749
0.09001817 0.0443649 0.08288245 0.056890372 -0.014163556 0.02858168 0.052257393 -0.08458455
0.032261197 -0.0007851312 0.017398695 -0.019557703 0.024491493 -0.039646726 0.042102914 0.066852115
0.051042557 0.049751002 0.025936695 0.0028538613 -0.06516842 0.00594157 -0.012498322 -0.019172497
0.06919162 0.06241962 -0.088519104 0.06311522 -0.021609133 -0.0184626 -0.099001855 0.008872114
-0.024443345 0.053607743 -0.04966572 -0.07829695 0.053328697 -0.09316847 -0.040925972 0.03846369
-0.014622352 -0.03518389 0.06089177 0.04208292 -0.077417314 0.056090664 0.03329963 0.015460093
-0.07039854 -0.03610109 0.071403824 -0.063718915 -0.022951113 -0.0025492636 -0.015195441 -0.023125382
0.0113249915 0.0045179552 -0.05953894 -0.08662289 -0.09038084 0.035835788 0.080321915 0.046975713
0.045500726 -0.014260993 0.017067386 0.021205325 0.22111987 -0.02741028 0.011014386 0.07397438
-0.01656912 0.016152898 -0.0303436 -0.03976814 0.058343526 -0.020691622 0.0009905923 -0.057918258
0.02046898 0.07783391 0.08533433 -0.07158973 0.0406293 -0.054551166 0.08744741 -0.08477041
-0.013963639 -0.06709972 -0.0035363417 -0.080843955 -0.03725846 -0.054194193 0.08739621 -0.039920207
0.053251717 0.04680819 0.0054093054 0.02491459 0.04940006 0.02453991 -0.07978878 0.02447106
-0.02350323 0.0721565 -0.07204972 0.04335659 0.06469379 -0.08627124 -0.0034622592 0.003674681
0.06419707 -0.028948676 -0.039178275 -0.029664971 -0.00030812627 0.05165507 0.07103896 0.02227738

value.net2.net.0.bias f4 [128]
00000000: 73a3 013d c69f 1a3c 334f 77bd 561b 133d
00000010: 39d2 0fbd b99c 723c ff13 e8bc c87c 98bd
00000020: 57b2 57bd 4782 833d 0322 2fbd 21a6 293d
00000030: 6cf9 f9bc 69e7 4abd 6b2a e9ba c2da 81bd
00000040: ee77 043d cdf6 033d 0622 c83d 4c83 733d
00000050: e49e f5bc 5263 513d 5b1f b1bd a983 53bd
00000060: db0e 53bd cc70 a23d 9cdb 743b 6790 83bd
00000070: 79fa 99bd 1915 34bd 5848 c53c 0d81 95bd
00000080: 8e7c adbd 42ec 2a3d c97d 513d ea37 863d
00000090: 6419 babb a515 8ebd 153f 7f3d 678a 423d
000000a0: 9c27 89bd d26f a5bc 543d 9ebb cd35 9b3d
000000b0: c592 983d b0ab 0fbd 8c24 9b3d 4923 84bd
000000c0: 47b1 a63d fe79 603c 9622 19bd 2bb8 873c
000000d0: 43ad b73d d766 a9bd 625c 933d 8131 a9bd
000000e0: 27ff 87bd 1dee 7f3c c713 263d 5388 04bb
000000f0: 3a58 3f3d c907 43bd 2d24 b4bd c33a 12bb
00000100: c2f7 a2bd ebf9 26bd cf06 6abd 6d8c 8e3d
00000110: a0d2 b9bc 0a17 4c3d a755 46bd 3168 73bb
00000120: 2877 cb3c 1cb7 093c b2a4 0e3d 80c1 94bc
00000130: aff1 b23d 64dc 10bc 23c6 96bd 2937 99bd
00000140: c7c3 9a3d 0bb6 f23c 6255 c53c 96af a63d
00000150: fca9 11bd 0176 893d 2ade 843a 6fbe 163d
00000160: 9c06 af3d 8cf0 29bd b975 8b3d 7012 733d
00000170: 7ccf 553d 919d 913d d0e8 183c 181b 98bd
00000180: 21ff ad3d 35ee 3fbc 03e8 323c ae97 87bd
00000190: 6f58 143d cc19 48bd 95da 9d3c cecf 2bbc
000001a0: 8d29 21bd 26e1 8bbc 959b 9dbd 2492 883d
000001b0: db0b a3bd c706 a63d 7d0a 883d de88 24bd
000001c0: 6f51 0e3d 2e60 00bd 60eb 87bc 50b8 66bd
000001d0: e743 82bd aaf3 393c 12ef 4abd 654b b73c
000001e0: 48a3 173d 6f38 05bc f565 223a 03ed 8b3c
000001f0: 01d2 cfbc 8616 73bc d3f6 b23c ef02 14bc
0.031650018 0.009437507 -0.060378265 0.03591474 -0.035112593 0.014807873 -0.028329847 -0.07445675
-0.052660313 0.06421333 -0.042757045 0.0414182 -0.030514441 -0.049537096 -0.0017789131 -0.06340553
0.032340936 0.03221779 0.097721145 0.059451386 -0.029982992 0.05112011 -0.08648559 -0.051639233
-0.05152784 0.079316705 0.0037362343 -0.06424027 -0.07518477 -0.043965433 0.024082348 -0.07300005
-0.084710225 0.04172922 0.05114535 0.065536335 -0.0056792963 -0.06937722 0.06231602 0.047495272
-0.06697008 -0.020194922 -0.004829088 0.07578621 0.07449869 -0.035075843 0.0757533 -0.064520426
0.08139282 0.01370096 -0.0373865 0.01656731 0.08968594 -0.08271568 0.07195355 -0.08261395
-0.06640463 0.0156207355 0.040546205 -0.0020222857 0.046715 -0.047614846 -0.087959625 -0.0022312857
-0.07957412 -0.040765684 -0.0571354 0.06960378 -0.022683442 0.04982666 -0.04842153 -0.003714096
0.024837092 0.008405473 0.034825034 -0.018158674 0.08737504 -0.008841608 -0.0736201 -0.07481224
0.07556873 0.02962782 0.024088565 0.08138959 -0.0355625 0.067119606 0.0010137011 0.036802705
0.085461825 -0.04148917 0.06809563 0.059343755 0.052199826 0.071101315 0.009332851 -0.07427043
0.084959276 -0.011714508 0.010919574 -0.066207275 0.03621715 -0.048852727 0.019269267 -0.010486556
-0.039346267 -0.017075133 -0.076956905 0.06668499 -0.079612456 0.081067614 0.066426255 -0.04016959
0.03474563 -0.031341724 -0.016591728 -0.056328118 -0.063606076 0.011349598 -0.0495444 0.022374818
0.03702095 -0.008131131 0.00061950024 0.01708079 -0.025368692 -0.014836913 0.02184621 -0.009033903

value.net2.net.2.weight f4 [128, 128]
00000000: 6c23 113e 7e87 d13c bee7 0c3d c9c1 083d
00000010: 474a 213d 4393 793d 175b 1cbd 650a bdbc
00000020: f7e1 953c debc a03c caa5 8c3e 4cbe 5ebd
00000030: 7391 663d 26ad d33c 3ef7 cabc 895a 1d3d
00000040: 02e1 503d bb1c b23b 2898 c43d e4e3 ebbb
00000050: 7109 cabb d7d2 ca3d 008a 45bd 87dc 2a3d
00000060: 7f5b 0fbd d043 a2bc 48c6 d5bb e5bc 863d
00000070: c42e 8f3d b7a2 083d 570b 9a3d 0649 8dbd
00000080: 5033 903d 4c57 543e 0762 9ebd 5f33 753d
00000090: fa71 64bd 0f2d ec3d e7d7 cc3c 0fae 613d
000000a0: b244 0cbc 9d58 143c 237a d73c ecea d8bc
000000b0: 06b1 d53e e717 203c b8a3 aebc 72e9 4fbd
000000c0: 2dea 803c 0d51 423c fd60 6d3c 71e7 543a
000000d0: 4c41 b13e 87d5 a83d 2150 85bd d409 16bd
000000e0: 4a13 d8bc ff1b 933d 732b 813d bc43 f8bc
000000f0: c188 363d 7470 003d 4e60 5e3d aab0 9ebd
00000100: 18d5 54bc 7a0c a73c 1bea d33d c373 3c3d
00000110: 95aa a63d 614d f83d 7edd cb3d 8e5d 83bb
00000120: a741 24bd 27e4 873b a93b 913c b993 17bd
00000130: b697 9d3d ca51 7b3c b0b1 863d bb1b 603d
00000140: c2f2 8cbd dc33 893c 91e5 f6bc 8404 863a
00000150: d6ad 0d3e a944 633d 941c a6ba 3a7f febc
00000160: 3822 91ba 5f2a bd3d f13b 9d3a 3dea 44bd
00000170: 814f 1f3c 695c f93b b483 86bd 8e3a 9c3c
00000180: 96ac 853d 8a92 0dbd f4cc 06bd 6078 74bd
00000190: 6880 59bd 9493 7bbc 9716 adbc 74df c3bb
000001a0: e9c2 943d b14a 183e 81fa 1e3d f951 9cbd
000001b0: 2cfc 66bd 219c 69bc 348f 57bd 7a52 1c3e
000001c0: 852d 903d 29bb 353c 12c2 07bd 3c61 4bbd
000001d0: a781 05bd 2a5d 17bd bc57 633c 4c0a 8b3d
000001e0: 05b5 d73d 8cc6 563d 58d1 053d ba0e 883d
000001f0: 105e bb3c 85aa a43d 9d82 9b3d 8cc3 6ebb
00000200: d2e5 d83d e832 743d 4ab6 733e 9d7a 993c
00000210: bc83 883d 6047 c93d 6d10 8c3c d2e7 5d3d
00000220: 2de0 d0bc 41b6 973c 147a c33d 6528 913d
00000230: 998c c33c 483b 493d a161 b13d 3846 21bd
00000240: 7d8d f93d be25 c73d 6450 163d 8847 543d
00000250: 0151 7fbd acc6 9c3c 6660 e13c bb61 9dbd
00000260: 3d36 bd3d b851 0e3d 7866 2abd 84f3 ecbc
00000270: 830e cd3d 585c 8f3d 1fd3 2e3c b595 81bd
00000280: 9111 2bbc 3e5a af3d fa1b 803d 5870 2ebd
00000290: 4c8d 963d beb4 293e 733b 023d 54f3 3ebd
000002a0: 0345 9dbd bd9d 7abd a9d4 193c 2528 7f3d
000002b0: f937 543d b4d4 82bd 784c 0f3e fe9b 633d
000002c0: e639 07bd 2868 b7bc 93d5 c63c 9daa 3c3b
000002d0: 5b37 323d c933 44bd 5169 943d 6231 4dbd
000002e0: e9f1 30bd c0ad e43d 6846 163d f53e 76bc
000002f0: cfd3 773d 1e96 9bbd e73d 8abd 73e8 4ebd
00000300: e29c a23d 1652 30bc 48ef aa3d 6195 b0bc
00000310: 8a89 fb3d 3f94 43bc 7a93 243e bd44 d83c
00000320: bc2f 853d 8bac 7ebd 3bd1 a2bc d505 acbd
00000330: b919 ab3d c3ee 1dbd 7c17 783d 1b7f 493d
00000340: 63ba d33b 2dd6 1b3d 8ea5 cbbd 33eb 113b
00000350: 4330 203e 78d2 c3bd 9ff2 163e 294e 993d
00000360: 87a5 6cbd 80f4 a93c b297 9a3d bd3f 9f3c
00000370: 4b8d a7bb 23d2 72bd a201 35bd 7d37 e3bc
00000380: c7a1 413d b823 4c3d 2533 a83d afec a43c
00000390: 4c62 a2bd ddba 88bd e8cc 443d 6892 cc3d
000003a0: 690d 41bd ae87 ba3c ee23 ec3d 7439 7d3d
000003b0: 9136 ae3d 5538 38bd 1137 f93c 4d9d 073e
000003c0: dfb6 79bb efca a0bd 01ce 573c d5d8 c13c
000003d0: cb06 9abc a68f bebc e290 a6bd 7278 9cbd
000003e0: 9938 1bbc bc3b 38bd 9b2c b93d 4abd e03d
000003f0: cecc 9b3d ebf0 25bd d136 9ebd 4224 853d
0.14173669 0.025577303 0.034400694 0.033387933 0.039377477 0.060931455 -0.038172808 -0.023076246
0.018296225 0.019621309 0.27470237 -0.0543807 0.056291055 0.0258394 -0.024776097 0.03841642
0.050995834 0.005435554 0.09599334 -0.0071987975 -0.0061656763 0.09903496 -0.04822731 0.041714218
-0.034999367 -0.019807726 -0.006523881 0.065789975 0.06991342 0.033358302 0.07521694 -0.06898694
0.07041037 0.20736426 -0.07733541 0.059863444 -0.05577276 0.11532032 0.025005294 0.055097636
-0.0085613 0.00905433 0.026303357 -0.026479207 0.4173662 0.009771324 -0.021318302 -0.05075974
0.015736664 0.011860144 0.014488456 0.00081216457 0.3462013 0.08243852 -0.06509424 -0.036630467
-0.026376385 0.07183074 0.063071154 -0.030305736 0.044564012 0.031357244 0.054291062 -0.0774854
-0.012990259 0.020391691 0.103473864 0.046008836 0.08138005 0.12124134 0.09954356 -0.0040089553
-0.040101673 0.004147071 0.017728643 -0.037006114 0.07694952 0.015339324 0.0657686 0.054713946
-0.0688224 0.016748361 -0.030138763 0.0010224734 0.13835844 0.0554854 -0.0012673312 -0.031066526
-0.001107282 0.09236597 0.0011996013 -0.04807495 0.009723545 0.007609893 -0.06568089 0.01907089
0.06527059 -0.03456358 -0.032910302 -0.05968511 -0.053100973 -0.01535501 -0.021128936 -0.0059775654
0.07263739 0.14872243 0.038813118 -0.076328225 -0.056392834 -0.014258415 -0.052626804 0.15265837
0.07039932 0.011091986 -0.033144064 -0.049653277 -0.03259435 -0.036954083 0.013875898 0.06789073
0.105325736 0.052435443 0.03267035 0.06643434 0.022872001 0.080403365 0.07593272 -0.0036432473
0.1059071 0.05961886 0.23800007 0.018735224 0.06665751 0.09828067 0.017097676 0.05417616
-0.02549752 0.018519523 0.09544769 0.07087783 0.023870753 0.0491288 0.08661199 -0.039373606
0.1218519 0.097239956 0.03669776 0.05182603 -0.06233311 0.019137703 0.027511787 -0.07684656
0.09238861 0.0347459 -0.041601628 -0.028924711 0.100125335 0.07000035 0.010670452 -0.063273825
-0.0104412 0.08562134 0.06255336 -0.042587608 0.07351169 0.16572854 0.031794976 -0.046618775
-0.076791786 -0.061185587 0.009389081 0.062294144 0.051811192 -0.06388226 0.13994014 0.055568688
-0.0330142 -0.022388533 0.024271762 0.0028788217 0.043509822 -0.04790095 0.0724665 -0.050095923
-0.043199454 0.11165953 0.03668824 -0.015029659 0.06050473 -0.07596992 -0.06750088 -0.05051465
0.07940079 -0.010761758 0.083464205 -0.021555604 0.12282093 -0.0119372 0.16071883 0.026399964
0.06503245 -0.06217627 -0.01987516 -0.0839955 0.083545156 -0.03855778 0.06056927 0.049193483
0.006461428 0.03804605 -0.099436864 0.0022265434 0.1564341 -0.09561628 0.1474099 0.07485611
-0.057775047 0.02074647 0.07548465 0.019439572 -0.005113279 -0.059282433 -0.04419101 -0.02773642
0.047273424 0.04983875 0.0821288 0.02013239 -0.07928905 -0.06676266 0.048046976 0.09988862
-0.04713193 0.022769775 0.115302905 0.06182237 0.085065015 -0.044975597 0.030421766 0.13243599
-0.0038103384 -0.078512065 0.013171674 0.023662964 -0.018802067 -0.023261856 -0.08133103 -0.076401606
-0.009473943 -0.044978842 0.09041711 0.10973604 0.07607423 -0.04051296 -0.07725299 0.06501056

value.net2.net.2.bias f4 [128]
00000000: 82fc 403d 1989 9e3d 7d7a 183d fd55 88bd
00000010: ebbb 5bbd 684f bcbd 1769 e13c 6850 933d
00000020: 6489 69bc 86e1 b63d 5fef 22bd 8924 9dbd
00000030: fe11 103d fc64 3dbd 2a24 c1bb c06c 6bbd
00000040: cfbf 323a 3c26 a33b 2a40 c73c 3ac0 56bb
00000050: 2a20 32bc 9231 263d e8ef 7cbd fe2e 1bbc
00000060: fa46 0b3d b401 003d a5a8 a53c 42e1 b2bc
00000070: e841 463b cf46 a9bb aa21 d03d 82f4 de3c
00000080: d06d 0dbd 52a2 303d 5984 6e3c 49d2 a23c
00000090: d53c d23c 9f6c ab3d c613 f43c 82f4 0b3d
000000a0: 51ed 40bd 0f09 c23d 9081 36bd 5851 c63d
000000b0: c620 f63c 5666 ce3d 5617 783c 33f7 6db7
000000c0: 2f08 1fbd 5300 0a3e 8d6b 9d3d 09dc cc3d
000000d0: bd97 e03a 09af 22bd d195 1ebd e44a 5ebc
000000e0: 2879 4ebd 07a9 97bd a2a9 6f3d 72b6 133d
000000f0: af5d 9dbd dfca 253d 9791 9d3d bba9 b3bd
00000100: bbe3 203d b5b2 85bd 4bc5 7d3d 92a4 673d
00000110: 6f7d 903c a0e5 083a de82 99bd a54a 623d
00000120: 34e1 bf3c 4cd8 343d 9ff4 633d 4f9c 20bd
00000130: 7b51 ce3d 610f 8ebc f337 d23d 2d3d d5bc
00000140: 983a 34bd 80cc 543d cd9e a33c 3582 513d
00000150: 4650 a53d f306 32bd e317 61bd 13fa b13d
00000160: 651a 1c3d b5ba 8abd 5ae1 ea3c b6f5 6c3d
00000170: 3011 8ebd ea8d 583d 732b 90bd f41d cf3d
00000180: 5da8 993d db1a ccbc 65ac 8dbc f556 173b
00000190: f0f8 19bd 071b a4bd 3c25 f4bc f0ab aa3d
000001a0: 6f36 7c3d 02e4 3bbd 416a 2cbd 30d5 12bc
000001b0: f161 8ebd 700e 643d 6f96 733d 880c 903d
000001c0: 63ef c23d 1406 1cbd bd0d 99bc 6bd7 d8bc
000001d0: 3945 9abc 283c 263d 9d33 eebc 83f9 77bd
000001e0: 36e1 92bd f3d2 2bbd 1893 f93c d5ff 03bd
000001f0: 42ed 10bd 9888 963d f5b4 fa3c b71e 9b3d
0.04711581 0.07740993 0.03722619 -0.06657026 -0.05364601 -0.09194833 0.027515931 0.07193071
-0.014253948 0.08929734 -0.039779063 -0.07672984 0.03517341 -0.046238884 -0.0058942037 -0.05747676
0.0006818743 0.004978923 0.024322588 -0.0032768385 -0.010871926 0.040574618 -0.06175223 -0.009471653
0.034003235 0.031251624 0.020222018 -0.021835927 0.0030251686 -0.0051659117 0.10162671 0.0272162
-0.034528553 0.04312355 0.014557921 0.019875662 0.025663773 0.08370327 0.029794585 0.034168728
-0.047101323 0.09474384 -0.044557154 0.09683484 0.030044924 0.10078113 0.0151422825 -1.4183856e-05
-0.038826164 0.13476686 0.07686529 0.10002906 0.0017135065 -0.039717708 -0.038717095 -0.01356766
-0.050408512 -0.07405286 0.058511384 0.036062665 -0.07683884 0.040476676 0.07693785 -0.08772608
0.03927968 -0.06528226 0.06195573 0.05655343 0.017637936 0.0005222205 -0.07495664 0.055246968
0.023422815 0.04415159 0.05565321 -0.039211567 0.10074135 -0.017341318 0.10264578 -0.026030147
-0.04400119 0.05195284 0.019973183 0.051149566 0.080719516 -0.04346366 -0.05495442 0.08690276
0.03811111 -0.06773893 0.02867191 0.057851516 -0.06936872 0.052869715 -0.07039537 0.10113135
0.07502816 -0.02491515 -0.017294118 0.0023092602 -0.03759092 -0.080129676 -0.029802911 0.08333576
0.06157535 -0.045871742 -0.04209352 -0.008961961 -0.069522746 0.05567783 0.059469637 0.0703364
0.09518316 -0.038091734 -0.018683309 -0.026469907 -0.018831836 0.040584713 -0.029077346 -0.060540687
-0.07171862 -0.041949224 0.030465648 -0.032226402 -0.035382517 0.07350272 0.030603865 0.07574218

value.net2.net.4.weight f4 [128, 128]
00000000: beee 9abd da89 cf3d cc2b 91bb 243d 79bb
00000010: 7a0b 263d 15db 3b3d b55e 3c3d da74 b8bc
00000020: c922 6bbd 83c2 1cbc 6890 b3bd 6217 673d
00000030: 4fed 533d 0ce1 703d 59de 28bd f08a ae3d
00000040: 0faa bfbc 9e03 043d a441 8b3d 146f 7fbd
00000050: b7ba 9c3d e3ac 813c 9082 8f3d 261b 00bd
00000060: 4e08 183c 42f6 9c3d d464 d6bc 403a e1bc
00000070: e4c4 d03d 5290 efbc 81b9 1a3d 67bd ab3d
00000080: ed8d 4cbc b52d 973c d0de adbc 0262 4f3d
00000090: 8735 08bd ff07 213c 1e0e 213d a5bc 383d
000000a0: af18 7b3b f2d1 7fbd bd31 deb8 9cf1 833d
000000b0: 0e39 1dbe 0a5f abbd 002a 8d3d d0c0 4fbd
000000c0: b4a6 04be 25d7 aabd ed15 d53c eba8 a13c
000000d0: 4502 0dbd 931b 7cbd 87a7 e6bd 83e7 8ebd
000000e0: 5c8e 733c bdeb 7a3d 8892 09bb e7da 163d
000000f0: 6b0a b2bd 7dc5 783d 53fb 993d 1b77 b4bc
00000100: 1f9e 293d 1edf b7bd c443 bfbc f9ce dfbb
00000110: 8e29 34bd 18b0 b0bc 1a10 de3c b68a 463b
00000120: 6e9e c73b 6e88 533d 4b2e c1bc 49c8 0d3d
00000130: b66d d2bc c06b ab3d f18c 13bd 748d 883d
00000140: 174e 28bd da90 7c3d 936f bfbd 9037 adbd
00000150: 9384 543d e293 f039 6d53 9d3c af87 09bd
00000160: 1a5b e23c a552 afbd 82b2 e7bb 9081 b43d
00000170: 27b6 8c3d f6f3 ebbd 693d 2ebd 46fc 7abd
00000180: 9edd 263d 7f46 2b3d daed 51bc 6ab9 9ebd
00000190: ab4d 79bd 33e1 47be 9552 8a3c 95b3 c4bd
000001a0: b120 58bd 4c5e 13be 6e7e 183d 31e2 2b3d
000001b0: cea3 a43b 7ce2 68bd 48aa 3fbd 8cdc a93c
000001c0: 65d8 1f3d 14a2 fe3b 9cb3 4dbc 29c5 a53d
000001d0: 8380 b13d 5d80 c43d fb51 babd 1c0b 833d
000001e0: e520 9ebd 128a 903c e3b6 c73d 6957 493d
000001f0: 9efd 95bd c813 4e3e a03b 433d 8586 36bd
00000200: 0ea6 c2bc dcac ab3d ff1b 67bd 8a33 5c3d
00000210: 0267 92bd 8a7c cebd 9cee c7bc afd2 31bd
00000220: 9f07 8bbd ca6a 443d 1d67 8e3d bc2c 5fbc
00000230: c299 493d 18fd d8bc 645f 8a3d 0fed 92bd
00000240: 7bcc ee3b 34cf b0bd 915e 38bd ae21 9e3d
00000250: 9bcd adbd cf70 203d 941a 5f3d 52db eebb
00000260: 1a6a 00ba 7cab c0bd 5877 543b abe4 2dbd
00000270: 7eb6 9bbd ad99 26bd 01f6 9a3d d982 f43b
00000280: 2559 bb3d 506d 86bd a123 99bd 8ec9 123c
00000290: c39e 02bd e89d 223d 5b93 773d a24d 703d
000002a0: 320f 98bd 9daa b33d f111 c23c 08b6 cabc
000002b0: 7c37 28bb 681a 84bd 2e44 9a3d 1edf acbd
000002c0: 7bc1 71bc 19cb 80bd 80c1 b23d 81b9 5a3d
000002d0: 74c1 833d 412b a5bd b3c0 91bc 8999 be3d
000002e0: 4155 e5ba 6c30 a33b 5b4c 2a3c 2454 ed3d
000002f0: ed13 a03d 6954 f0bc d407 abbd 68af bd3c
00000300: aab7 edbc 7d06 8d3d 0efa 263d 3203 843d
00000310: f8bc 063d d9d6 843d cb60 fbbc 8a47 9b3d
00000320: 3df8 92bd 4f35 1ebd 5445 8bbc b49d e13c
00000330: 26d0 813d dba5 1b3d 5cc7 a4bd c640 ad3d
00000340: 0121 98bd d7fd 62bc 1c39 293d 39a7 12bd
00000350: 592b 863d 54ce 01be 0bfb 73bd fd3f b5bc
00000360: b6c3 5d3d 900c 223d 67b9 a83c 04fc 713d
00000370: 19cc 56bc d238 233d 88e0 a0bd 4f25 6e3d
00000380: 3159 4dbd d326 ebbc bcf3 8e3c 77f9 a1bd
00000390: 3a83 c3bd f102 52bd 7f8a ab3b 1962 63bd
000003a0: 9ccc 8e3b 9b64 adbc 6720 21bd 0a32 0b3d
000003b0: 82ed ff3c 96df 7a3d 58c8 74bd 5ef0 833a
000003c0: 148b 123d 156f 69bd 385d 80bd f7aa 483d
000003d0: e60e 513d fdf0 d63b 2318 6a3d 1d64 953d
000003e0: 3f42 b63c 6d18 703d 1a14 0a3d b0e4 bc3d
000003f0: 13ad dabc 58ab cd3d 0d29 2dbd ec69 5fbd
-0.07565068 0.10133715 -0.00443027 -0.0038030827 0.04053829 0.04586323 0.045988757 -0.022516657
-0.05740622 -0.00956786 -0.08767778 0.056418784 0.051739987 0.05880837 -0.041227672 0.08522594
-0.02339652 0.032230012 0.06799629 -0.06236179 0.076528005 0.01582951 0.07007325 -0.03127589
0.009279324 0.076641575 -0.026171125 -0.027493596 0.10193804 -0.029243622 0.037774567 0.08385735
-0.01248501 0.018454412 -0.02122441 0.050630577 -0.033254173 0.009828567 0.039320104 0.04510178
0.0038314273 -0.06245608 -0.000105950494 0.06442568 -0.15353796 -0.08367737 0.068927765 -0.05072099
-0.12954217 -0.08341817 0.026011432 0.019733867 -0.034425993 -0.061549734 -0.11262422 -0.06977751
0.014865484 0.061259974 -0.002099188 0.036829855 -0.08693393 0.060735215 0.075186394 -0.02202945
0.04141056 -0.08978103 -0.023347743 -0.006830093 -0.043984942 -0.021568343 0.027107287 0.003029508
0.0060918843 0.05164378 -0.023581645 0.034614835 -0.02568708 0.08370161 -0.036023084 0.06667605
-0.041090097 0.06166158 -0.09347453 -0.08457863 0.051884245 0.00045886548 0.01920482 -0.033576664
0.027631331 -0.08560685 -0.0070708403 0.088137746 0.0687068 -0.11521141 -0.042539034 -0.061275743
0.040738694 0.041815277 -0.012813056 -0.07750209 -0.060865086 -0.195195 0.016885081 -0.09604565
-0.052765552 -0.1439144 0.037229948 0.04196376 0.00502441 -0.056856617 -0.046793252 0.020735048
0.03902473 0.007770786 -0.012555029 0.08094246 0.0866709 0.09594796 -0.09097668 0.06398603
-0.07721118 0.017643962 0.0975168 0.049155626 -0.07323764 0.20124733 0.047664285 -0.04456188
-0.023760822 0.0838258 -0.056423184 0.05376009 -0.071485534 -0.10082348 -0.02440577 -0.043413814
-0.06788563 0.047953404 0.06953261 -0.013621505 0.0492189 -0.026487872 0.067564756 -0.071741216
0.0072875596 -0.08633271 -0.04501206 0.07721268 -0.08486482 0.039170083 0.054468706 -0.0072893286
-0.0004898623 -0.09407708 0.0032419767 -0.042454403 -0.07603167 -0.0406739 0.07566453 0.0074618873
0.09147862 -0.065638185 -0.07477499 0.008959187 -0.03188969 0.039701372 0.060443264 0.058667786
-0.07424773 0.08772776 0.023690196 -0.024745002 -0.0025667837 -0.06450349 0.075325355 -0.08440994
-0.014755602 -0.06288738 0.087283134 0.053399567 0.06433383 -0.08064891 -0.017792081 0.09306628
-0.0017496721 0.0049801376 0.010394181 0.11588314 0.078163005 -0.029337125 -0.083511025 0.02315493
-0.029018242 0.06886003 0.040765814 0.06445922 0.03289506 0.064862914 -0.030685803 0.07582004
-0.07176254 -0.038625058 -0.017000832 0.027541019 0.06338529 0.03799997 -0.08045837 0.0845962
-0.0742817 -0.013854465 0.04131423 -0.035804007 0.06551237 -0.12676364 -0.059565585 -0.022125239
0.054141723 0.03956276 0.02059622 0.05907823 -0.013110184 0.03984911 -0.07855326 0.05814105
-0.050133888 -0.028705036 0.017450206 -0.0790891 -0.09546514 -0.051272336 0.005235016 -0.055513475
0.0043578874 -0.021166136 -0.039337542 0.033983268 0.031241182 0.061248384 -0.059761375 0.0010066142
0.035777166 -0.0569907 -0.0626778 0.04899117 0.0510396 0.0065594898 0.057151925 0.07294486
0.022248385 0.058617044 0.033710577 0.09223306 -0.026693856 0.10042447 -0.042275477 -0.054544374

value.net2.net.4.bias f4 [128]
00000000: de0d 873d c41d 483c ee88 89bd 985f 073e
00000010: deca c6bd 7076 f33c 9c5f f137 e330 50bd
00000020: fd5f 44bd 105f c53d fe8c b23c 733c c83d
00000030: ef31 c13d 6df9 703d c59a 263d c8ac 133b
00000040: ba73 663c 4336 aabd 50e9 d83d 8e6a ffbc
00000050: e0ee 9aba 029f bdbd e269 91bb ffa4 bfbc
00000060: c6b4 9abc 92f1 a73d b060 ba3d b053 56bc
00000070: 6991 c7bd 7d1b a73d fab0 e3bb e113 a9bd
00000080: 1521 c33d f00a 09bd cdea 3ebd d25f 953d
00000090: ce71 dd3d d0e5 aa3c 8b24 be3d 227c 473d
000000a0: 2c6a 9e3d 93ca 47bd dcd0 49bd df0c 0cbd
000000b0: a67b 73bd 6656 9d3d 79f8 69bd 1f6a 793d
000000c0: 6ed5 b6bd 68be 3dbd c0d7 fb3d 8e68 32bd
000000d0: 61cf 99bd 7b1a 0cbc df89 0a3d a8c1 933d
000000e0: 55e0 063d a7b3 31bc 0cd4 d2bd a648 073e
000000f0: 8313 73bd 2eaa 813c 1034 c9bc 8fda 45bd
00000100: b26c cfbd 99e6 a9bc 93ea a8bd 7015 16be
00000110: e958 333d 5fda bd3d 2e9b 4cbd 2e6f 1d3e
00000120: 34be 783d 7151 9e3d 07b4 c1bd bbc8 683d
00000130: 7300 c73c 937e 863d d6ee bd3d de6b 6ebc
00000140: c284 ef3d f3a7 dd3d 3627 89bd 526f 4d3d
00000150: 588c 8bbd b51e 0abd ecf7 443d fe32 e6bd
00000160: de55 b83d a85d 9cbd 0bdf 6a3c e742 13bd
00000170: 4905 803c 73f0 ca3d 8061 743c 4af1 9d3d
00000180: 1559 70bd 7861 05bd f9dc b7bd 9f94 6bbc
00000190: bc39 d73d f98f 283e 7d00 cfbd 1d5a 15bd
000001a0: e19d 0dbd 004d 6abd 7ab6 ea3d 981a 06be
000001b0: f8a9 9c3d 5756 fdbc 0868 1b3c 7dff 99bd
000001c0: cc6e b63d f7bb 833d 9255 bebd b2d4 00bb
000001d0: 8f27 b0bd 0caf 06bd e6fa bc3c 24d6 cebc
000001e0: 40c7 043d f727 e53d 61c9 8bbd 993c 3f3d
000001f0: b857 c33d 91c3 eebc c0d1 dcbd ce08 86bb
0.06594442 0.012214128 -0.067155704 0.1322006 -0.097066626 0.029719561 2.877396e-05 -0.050827872
-0.047943104 0.09637272 0.021795746 0.09777155 0.09433352 0.05883162 0.040674943 0.0022533406
0.014065677 -0.08311131 0.10591376 -0.031178739 -0.0011820458 -0.09258844 -0.004437671 -0.023394106
-0.018885028 0.08200373 0.09100473 -0.013081476 -0.09744532 0.0815954 -0.0069485875 -0.08255745
0.09527794 -0.033457696 -0.046610642 0.07293667 0.10812722 0.020861536 0.09284314 0.048702367
0.077350944 -0.048777174 -0.04927145 -0.034191962 -0.059444092 0.07682495 -0.057121728 0.06089222
-0.08927427 -0.046324164 0.122970104 -0.043556742 -0.075102575 -0.008551235 0.03382289 0.072146714
0.032928783 -0.010846055 -0.10294351 0.13211307 -0.05934478 0.015828218 -0.024560958 -0.048304137
-0.10128154 -0.02073984 -0.082478665 -0.14656615 0.043785963 0.092701666 -0.04995268 0.15374443
0.060728267 0.077303775 -0.094581656 0.056832056 0.024292206 0.06567111 0.0927407 -0.014552085
0.116952434 0.108230494 -0.06696932 0.05015499 -0.06813878 -0.03372069 0.048088 -0.11240195
0.09000753 -0.07635051 0.014335404 -0.035952475 0.01562752 0.09909143 0.014915824 0.07712038
-0.058678705 -0.032563657 -0.08977694 -0.014378696 0.10509059 0.16461171 -0.10107515 -0.03646289
-0.034574393 -0.05720234 0.11460586 -0.13096082 0.076496065 -0.03092496 0.009485252 -0.07519434
0.089078516 0.06432336 -0.09293665 -0.0019658026 -0.08601295 -0.03288178 0.023068856 -0.025248595
0.032416582 0.11189263 -0.06825519 0.04668865 0.095382154 -0.029145988 -0.10782194 -0.004090405

value.net3.net.0.weight f4 [128, 256]
00000000: 7390 9f3d 0670 1b3d 01d2 89bc c1ce c93c
00000010: 73c1 de3c 2e39 7cbd 998d 033d 5e27 f8bc
00000020: ea00 55bc f387 45bd fb78 c7bb 9478 603d
00000030: 199b 7d3d 6d68 073d 43a3 a0bc e1d8 79bd
00000040: 74f7 99bc b5d1 87bc 663b 323d 15ca 52bd
00000050: 754f e1bd 9671 92bd 8341 813d f6ed de3b
00000060: 4e32 353d 8b74 a9bb 0c17 09bc 16fc 2f3d
00000070: 4a62 aa3c 01ee dbbc caee b53d 92b1 b5bd
00000080: 99f0 3c3d 2df9 ba3d 3a2b 3e3d d45b ba3c
00000090: 9ae2 0e3d 41f7 bc3d 85cb 86bd 4637 993d
000000a0: a168 8e3d 8350 853c 0bad e03c 6a49 753d
000000b0: 072b 8cbd 402e 9f3d 77ca be3d adfb 1abd
000000c0: eb6c 9ebc 4f7b 00bd 92c1 9dbc f34a 64bd
000000d0: 82a8 f5bb e3a0 73bd f246 b83d f615 2bbc
000000e0: 7d0c 71bd 40a3 9c3d 786b 1abd 7c2f 2dbc
000000f0: ec73 ddbd 0a48 4e3d 552a 9bbd 9f50 b33d
00000100: 3056 8ebd eb73 653d 0dff c73c 22d5 87bc
00000110: e372 6abc f34e bd3c 7cfc c03c d58e b23c
00000120: 0dd6 e1bc 014e 55bc 87b4 3a3d 2b26 253d
00000130: 2c91 293d 8d0d e5bc 0519 233d e279 00bc
00000140: 42fc b1bd eac5 9e3d 2c7e 28bd 6276 abbd
00000150: b276 dbbc 9466 663c 6d23 acbc 63b0 32bd
00000160: a725 86bc e61f 033d 86d0 b43c d1cb 5c3c
00000170: b3ca 43bc ea97 d73c 0046 2f3d cef2 7b3d
00000180: a8e4 893c c86e b73d dd3a bebd 24e2 5dbd
00000190: 46c0 d1bc 07bb dcbc 796c bd3d d0af 95bd
000001a0: a04c e43c 7306 2d3d 4a26 d8bd 2627 92bd
000001b0: b8a9 f6bb 7ea5 babd 8566 9639 0392 7f3b
000001c0: 4f1c 9b3d 9275 2d3d 3715 f8bc 1ea8 5fbd
000001d0: 0b68 9b3d 3467 22bd e14e ff3a 23af a6bc
000001e0: 8de4 8a3b 135e 973d e009 e7bb 8742 a7ba
000001f0: 465e 703d b75e a33d 3974 00bd 6fb3 393d
00000200: e42b d8bd 90f3 65bd e6ee e0bd 8aec ad3c
00000210: c5b1 d93d e366 973d b9a3 07be 2d81 dd3c
00000220: 1efa a8bd 800f a23c 1c93 2bbd e0ae 00be
00000230: 8495 c33c 9e9f 3abd 91db ca3d 43fb 5a3e
00000240: 8a41 f73c 7d9b 58bc 41e8 373d 42fa bebc
00000250: 1022 3dbe 3f92 2d3c 9884 ddbb 7c81 a5bc
00000260: 062f 113e 01c8 923d 6f0f eabd 7707 3ebd
00000270: e038 e2bb 6f41 af3d ffd9 9a3c fbe3 923b
00000280: 0921 5b3d 9a24 10bd 8a27 36be 726c 453d
00000290: 8793 0fbd 54b4 1d3d 5711 443c 3bff 15be
000002a0: 47f5 2a3d 4f9d 0fbd 60f5 6ebd b826 253d
000002b0: 8c4c 1bbd 2b36 de3d a804 5b3c 38e9 5cbd
000002c0: 64be 8dbd 6f0b afbd e480 8abc a8c8 47be
000002d0: ca0f f73d 0c20 8d3c b0fb 00be c231 7f3d
000002e0: f166 923c 301a 053e 89a5 843d cba0 803c
000002f0: e3ed bc3c 7c48 9cbd 1a45 d13b 07e2 64bd
00000300: 28cc 71bd cf0a fabc f78d 96bd 7f84 853c
00000310: bac7 b7bd 4037 383c 1e63 323d add7 983d
00000320: 4ff9 6d3b b85f 2aba 2d90 b53c b79c 873d
00000330: 849d 00be 193b 703d aa24 f0bd 7fb3 6f3d
00000340: b1c2 8c3d f8a1 083d cd7a d63d f6a3 3fbd
00000350: 0d67 e23a ae43 fbbd e479 b33b 86a6 e13d
00000360: a488 863d e410 aa3c 40f0 143d 2e3e b63c
00000370: 0e63 e03d 5872 5abc 60d8 b5bc fe76 1bbd
00000380: e0e2 6d39 6a35 80bc 4e5a 70bd 8dae a5bb
00000390: 8c13 813d 8420 393c b85f 6e3d 887e 633c
000003a0: 0ed8 243c f140 d2bd 5318 4d3c 2e04 76bd
000003b0: 4a86 863c 924c 00bd 06df f4bd 43e4 3a3b
000003c0: cfe0 2fbe 57b1 6e3d 793b 0f3c 8285 10bd
000003d0: 7c8f 57bd 7b30 4bbc df5c 15bd 2ec7 a0bb
000003e0: 9d54 f53d 2399 2bbe 6121 003e 6a8d cd3d
000003f0: 8b4b 943d ae5a 9e3c 8558 153c 4c25 9ebd
0.077912234 0.03794863 -0.01682377 0.02463472 0.027191853 -0.06157797 0.03211746 -0.03029221
-0.013000706 -0.048225354 -0.00608742 0.054802492 0.06191549 0.033058573 -0.0196091 -0.060997847
-0.018794753 -0.016579488 0.043513678 -0.05146225 -0.11001483 -0.07150571 0.063113235 0.0068032695
0.044237427 -0.0051713637 -0.008367311 0.042965017 0.020798821 -0.026846888 0.08883436 -0.088717595
0.04612789 0.09129558 0.046427943 0.022748865 0.034884073 0.092268474 -0.06581787 0.07481246
0.0695355 0.016273743 0.027426263 0.059884466 -0.06844144 0.07772493 0.09315961 -0.037837673
-0.019339046 -0.031367596 -0.01925734 -0.05573554 -0.0074968943 -0.059479605 0.08997907 -0.010442248
-0.0588498 0.07648325 -0.037700146 -0.010570403 -0.10813126 0.05036167 -0.075764336 0.08755612
-0.06950033 0.05601875 0.02441361 -0.016581122 -0.014309618 0.023108935 0.023557894 0.021796623
-0.027567888 -0.013019086 0.04558232 0.040319603 0.041398212 -0.027960563 0.039818782 -0.007841559
-0.086906925 0.07752593 -0.041135952 -0.08372189 -0.026789997 0.0140625425 -0.021012986 -0.043625247
-0.016375376 0.032012843 0.022072088 0.013476328 -0.011950183 0.026317555 0.042791367 0.061510853
0.016832665 0.08956677 -0.09288571 -0.054170743 -0.025604378 -0.02694465 0.09249205 -0.07308924
0.027868569 0.04224248 -0.10554178 -0.07136373 -0.0075275563 -0.091135964 0.00028686612 0.0038996942
0.07573759 0.042348452 -0.030283554 -0.05460369 0.07588204 -0.039649203 0.0019478464 -0.020347184
0.004238671 0.0739099 -0.0070507377 -0.0012760916 0.058683656 0.0797705 -0.03136084 0.045337137
-0.105552465 -0.056140482 -0.10983066 0.021230955 0.1062961 0.07392671 -0.13246049 0.027039135
-0.08250831 0.019782782 -0.04188834 -0.1256671 0.023875006 -0.04556238 0.0990516 0.21384911
0.030182619 -0.013220665 0.04489923 -0.023312692 -0.18470025 0.01059395 -0.006760191 -0.020203345
0.14178094 0.07167054 -0.11428725 -0.046393838 -0.0069037527 0.08557402 0.018902777 0.004482744
0.0534983 -0.035191156 -0.1778852 0.048199125 -0.035052802 0.038502052 0.011967025 -0.14648144
0.04173782 -0.03506213 -0.058339477 0.04032013 -0.037914798 0.108501755 0.013367809 -0.053933352
-0.0692108 -0.08547103 -0.016907163 -0.19510138 0.120635584 0.017227195 -0.12596011 0.062303312
0.017871352 0.12998271 0.06476886 0.015701672 0.023062652 -0.07631013 0.0063864114 -0.05587962
-0.05903259 -0.030522732 -0.073512964 0.01629853 -0.08973642 0.011243641 0.043551557 0.07463012
0.003631193 -0.00064992486 0.022163475 0.06621688 -0.12560087 0.05865011 -0.11725743 0.05852079
0.06873072 0.03335759 0.10472641 -0.046787225 0.0017273143 -0.12268768 0.005477177 0.1101809
0.06569031 0.020760007 0.036361933 0.022246446 0.10956393 -0.013332926 -0.022197902 -0.037955277
0.00022686599 -0.01565047 -0.05867987 -0.0050562085 0.063025564 0.011299256 0.058196753 0.013885148
0.010061277 -0.10266293 0.012518006 -0.06006258 0.016421456 -0.031323023 -0.11956601 0.0028517402
-0.17175601 0.058274593 0.008742207 -0.035283573 -0.05262707 -0.012401695 -0.036465522 -0.0049065566
0.11979029 -0.16757636 0.12512733 0.10036738 0.07240971 0.019330349 0.009115343 -0.077219576

value.net3.net.0.bias f4 [128]
00000000: de8c 60bd e7fa b5bc f974 93bd cb92 19be
00000010: b2ef 1ebd a5ba 37bd ca9d 7fbc 9266 15be
00000020: ac2a 4e3c 5bee 37bd 177b 1c3c 67fa 49bd
00000030: fd78 7dbd 56e7 293d 9533 043c 2892 8fbd
00000040: 7a9e fdbc 2561 1ebd 4496 1dbd 4701 493c
00000050: 3e5c d43b 1b1f 5cbc 1a63 2abd 6e26 823b
00000060: 391f b2bd 1b0b dcbc db58 58bd 1486 97bd
00000070: 1271 55bd ac1e 82bd a008 b4bd 522a 9ebd
00000080: 20af 5e3d da05 a3bd e687 c8bd 6053 073d
00000090: 8254 97bd 4e7c 09bd f97b d83b 4a37 eabb
000000a0: 927e 9ebd cf9a 68bd 33d7 54bd 72f3 90bb
000000b0: cbca 9fbd 118c 77bd b1d8 02bd 69ae cd3c
000000c0: 22b2 0abd 6cdb 0abe e4f0 01bc 81a8 c3bd
000000d0: acfc 943c 18ce 6cbc 0a2d 00be 0c80 85bd
000000e0: 9cc0 023d 9147 ff3c fb84 683d 4592 b2bd
000000f0: b82f 04bc ffd8 bcbd e66a 1fbd c3da 8e3c
00000100: 7984 223d 4f42 85bd da38 62bd 0a56 5b3c
00000110: a0f4 6839 78d5 413d 03e2 9dbd e95b c5bd
00000120: 9180 c43c 4b4d acbc 8eeb c2bc ec45 833d
00000130: e5d7 86bd d5cd 92bd 00cb 9b3c 2f0c fd3c
00000140: 3437 fdbb 934c 8b3b 6226 8dbd 0464 8fbd
00000150: 0619 e4bb 3139 9fbd 6cae b23b ae9d a33c
00000160: 654a bdbd 5470 233c 9c75 bbbd 0913 8bbd
00000170: 6184 99bc d20a a43b dec2 c83d 4ebb 9bbb
00000180: 23e8 4f3c 54e3 babd b2ed 52bd 61ce f2bc
00000190: 9a53 13bd b3dd 0ebd 69b4 91bb db14 bebd
000001a0: ae9d 4abc 558c 503c da2d 9cbc b4f7 4ebc
000001b0: 73e4 20bd 83ee acbd 1c94 953c b2da b0bc
000001c0: f7e0 a53c 3d8d 7c3e 3ea6 cc3d 861a 91bc
000001d0: 2a29 213c 6a27 57bd 7c9c fd3b 6a20 22bd
000001e0: 2815 a7bd 03b4 ad3c 77cb 85bd 762a 90bd
000001f0: aae7 0f3a ee94 00bd a8cc e5bd b580 07bc
-0.05482184 -0.022214366 -0.07200045 -0.14997403 -0.03880281 -0.044855732 -0.015601585 -0.14589909
0.012583416 -0.044905048 0.009550831 -0.049311068 -0.06188296 0.041480385 0.008068939 -0.07010299
-0.030959357 -0.038666863 -0.038473383 0.012268371 0.0064807227 -0.0134351505 -0.041598417 0.0039718663
-0.086973615 -0.026860764 -0.052819114 -0.0739862 -0.052109785 -0.063535064 -0.087907076 -0.07722916
0.05436623 -0.079601005 -0.097915456 0.033038497 -0.073891655 -0.03356581 0.0066065756 -0.0071477043
-0.07738985 -0.056788262 -0.051963042 -0.004423552 -0.078023516 -0.060436312 -0.031944934 0.02510758
-0.033861287 -0.13560265 -0.007930968 -0.09553624 0.01818689 -0.014453433 -0.12517181 -0.06518564
0.031921968 0.031162055 0.056767445 -0.08719305 -0.008068018 -0.09221076 -0.038920306 0.017438298
0.039677117 -0.06506788 -0.05523 0.0133872125 0.00022216374 0.04732272 -0.07709124 -0.09636671
0.023987086 -0.02103295 -0.023793962 0.06409821 -0.06584147 -0.071681656 0.019017696 0.030889599
-0.007727528 0.0042510717 -0.068920866 -0.07001498 -0.006960991 -0.0777458 0.0054529216 0.019972648
-0.09242705 0.009975512 -0.091532916 -0.0679074 -0.018739881 0.0050061727 0.09802793 -0.004752553
0.012689623 -0.09125391 -0.051496215 -0.029639425 -0.0359684 -0.034879398 -0.0044465554 -0.092813216
-0.012366695 0.01272877 -0.019064832 -0.012632299 -0.039280366 -0.0844393 0.0182591 -0.021588657
0.020248873 0.24663253 0.09992646 -0.017712843 0.009836474 -0.052527823 0.0077396017 -0.039581694
-0.08158332 0.021204 -0.065329485 -0.07039349 0.0005489538 -0.03139203 -0.11220676 -0.008270432
